NaiveFHECNN/plainmodel.pt (torch, 71343 bytes, 6 tensors)

conv1.weight f4 [4, 1, 7, 7]
00000000: 8862 68bd ebf8 01be 0831 283d 05c1 663c
00000010: b090 70bb 6c1d dc3d ac14 66be c316 c4bc
00000020: 5393 12be 5f24 05bd 7dc9 073e 5350 653e
00000030: ce10 a33c ada2 34be a24a a9bd 4782 973d
00000040: 0452 2e3e 6dd0 aa3c 4bb6 f43d a375 07be
00000050: a936 91be d44f 0cbe b475 073e b79b 123e
00000060: df1f 2d3e 3155 a13d c33e 14be a1e3 9fbe
00000070: b49f 8fbd 025a 523e 8e41 503e 5888 4cbd
00000080: 4c1f 0bbe a97c 43be b607 28be bf83 81bd
00000090: 6a1d 1d3e 1c44 8f3e 860f 253d 5431 dcbd
000000a0: 5e8a 09be 71b5 a3bd 1acf 84bd d5e0 5e3e
000000b0: 0e59 5f3e 537b 5ebd 52e9 23be b85a 10be
000000c0: ada4 25be e424 54bd 9e41 a1bd cec5 73bd
000000d0: cb52 533e b2ad ad3e 1dbe 723e 9758 fd3d
000000e0: 57c3 89bd 42b7 f3bd b593 97bd d69b 993d
000000f0: 10da 633e e83f b53d c40b f73d 1bd0 683d
00000100: 0ce5 62be 3c59 25be 97aa 18be 8f36 10be
00000110: 909c 33be c217 383c 2c32 5a3d d769 17be
00000120: 86d7 9cbe 0fcb fdbd d608 24be 051e 28be
00000130: 23f0 2d3b 1904 1a3e bde0 19be 4f9d 3abe
00000140: fe82 ffbd b67e 6ebe 99d4 5fbd 8c0b 63be
00000150: a462 243e dfd1 a9bd 587f 04be f21b 57bd
00000160: b2a8 bbbd 30d2 a8bd f471 bb3c 6f3d 9a3e
00000170: b431 643e fba9 543e bb3a 1c3e 42a3 5b3e
00000180: 8f25 eb3d 0e4b d1bd 2780 da3d c98c 543d
00000190: 77db 48bd 1b13 c3bd fb4b 79bd b5fe a43d
000001a0: a296 b23d 20df 7fbc fee4 2bbd 770e 25bd
000001b0: 17fc 4bbe f535 aebd 20ff 0b3e 5ad8 843d
000001c0: 9ed0 e43d 7323 a0bd d1b0 98bb 927d 34bd
000001d0: dac8 cfbd c216 553e 99dc 833e 8fc4 f83d
000001e0: 1ff1 14bc cbb9 01bd c63d 5ebe 1f8d abbd
000001f0: cd00 e5ba 98a3 553e 5e17 b33d 1bed 8f3d
00000200: 2140 90bd fb8e 76be 50c0 9dbe e184 34be
00000210: fa8f 69bd 2ecf dfbd 81be ec3c 01c1 a3bd
00000220: e416 8ebe 1562 4cbe 3961 0fbe 0632 44be
00000230: bffc d5bd d254 063e aa97 793d 7404 853d
00000240: b87e cabd deae eebd 6145 f2bd c779 a83a
00000250: ac9e bebd 321b 27be 9409 f8bc b55a 3abc
00000260: 64c9 7c3d e496 013d bb99 d13d 38ff 43be
00000270: f070 01be 975d 18bd 3359 84bd 5500 083e
00000280: 71e9 263e 47e5 31be d16f 4bbe c7da 0ebe
00000290: 665c 483d 2374 853d 44da 883e be4c e03d
000002a0: 585a a1be 0fe7 5ebd 4b45 a13d 9b88 8c3d
000002b0: de47 b03e 364e 013e d84e a53d d509 b1bd
000002c0: 2837 583e 191b ba3d d073 b03e 381f 883e
000002d0: 1942 213e 869d 3abe 7a63 d13d 7fe4 403e
000002e0: b051 553e f5ca 133e 73e9 043d 5010 e6bd
000002f0: d352 1abe 42c6 1e3e e95d 4a3d 9e4f b5bd
00000300: 7ab3 463c 23c4 3bbe 1800 1cbe d6a7 bebd
-0.05673459 -0.12692611 0.041062385 0.014084105 -0.0036707334 0.10747799 -0.22468823 -0.023936635
-0.14314012 -0.03250539 0.13260455 0.22393923 0.019905474 -0.17640181 -0.08266188 0.07397895
0.17023474 0.020851338 0.11948832 -0.13228469 -0.28362015 -0.13702327 0.13228494 0.14317213
0.16906689 0.07877577 -0.14477067 -0.31228355 -0.07012883 0.20542148 0.20337507 -0.049934715
-0.13586158 -0.19090523 -0.16409191 -0.06323957 0.15343252 0.2798165 0.040298007 -0.10751596
-0.13431689 -0.079935916 -0.06484814 0.21765454 0.21811315 -0.05431683 -0.16006973 -0.14097106
-0.161761 -0.051792994 -0.078738436 -0.059514813 0.20637052 0.33921582 0.23705335 0.12370413
-0.06726711 -0.11900188 -0.0740122 0.075004265 0.22251153 0.0885008 0.12062791 0.05683909
-0.22157687 -0.16147321 -0.14908825 -0.14083312 -0.17540193 0.011236133 0.053270504 -0.14786468
-0.3063318 -0.12392246 -0.16018996 -0.16417702 0.0026540838 0.15040626 -0.15027137 -0.18224071
-0.12476157 -0.23290524 -0.05464611 -0.22172374 0.16053253 -0.08291983 -0.12939203 -0.052516885
-0.091630355 -0.08243215 0.022881486 0.30124995 0.22284585 0.20767967 0.15256779 0.21448997
0.11481773 -0.10219394 0.10668974 0.051892076 -0.049037423 -0.095251285 -0.060863476 0.08056394
0.08720137 -0.015617162 -0.04196643 -0.040296998 -0.19920383 -0.08506385 0.13671541 0.06486578
0.11172603 -0.078192614 -0.00465975 -0.044065066 -0.10145731 0.20809463 0.2575424 0.121468656
-0.009090691 -0.031671327 -0.21703252 -0.08376526 -0.0017471552 0.20863187 0.08744691 0.07027646
-0.070434816 -0.2407798 -0.30810785 -0.17628814 -0.057022072 -0.10928188 0.028899433 -0.07995797
-0.2775184 -0.1995929 -0.14001931 -0.19159707 -0.10448598 0.13118294 0.060935654 0.0649499
-0.09887451 -0.11654447 -0.11829639 0.0012853675 -0.09307608 -0.16318968 -0.030278005 -0.011374165
0.0617155 0.03163804 0.102344 -0.19140327 -0.12640738 -0.03719863 -0.06462326 0.13281377
0.16299988 -0.17372619 -0.19866873 -0.13950644 0.048916243 0.06516292 0.26729023 0.109521374
-0.3151424 -0.054419573 0.07874545 0.06861993 0.3442983 0.12627491 0.08071679 -0.086444534
0.2111479 0.090872 0.34463358 0.26586318 0.1574787 -0.18224153 0.10224052 0.18837164
0.20831943 0.1443289 0.032449197 -0.1123358 -0.15070657 0.15505317 0.049405966 -0.088530764
0.0121277515 -0.18336539 -0.15234411 -0.09309356

conv1.bias f4 [4]
00000000: 44a1 d43e cc7c 21be 91cd 26be 9f22 69bb
0.41529286 -0.15770262 -0.16289355 -0.0035573614

fc1.weight f4 [64, 256]
00000000: 1ad0 54bd f828 ebbd 274e 77bd 136b 2a3e
00000010: d7db 4abd b702 2fbe 2356 c9bd f276 cebd
00000020: c3aa 163d 846c e1bd 5020 1cbc f956 e93d
00000030: 156e 89bd db9f 0cbb 6b1d 84bd 27a9 92bd
00000040: b662 ee3c be1d bfbd b41d 24bd 07f8 19bd
00000050: d5b9 40be b30a c9bd ed1b 13be 483f acbd
00000060: 6b90 32bd 7c6d 9f3d 2d18 cc3d fead 24bd
00000070: 0285 17bd 0c87 443d 04d1 88bd 542c 883d
00000080: 7c4f 22be fafd 70bd 8d65 54be 3d10 c8bd
00000090: 4b54 89bd 8b26 7c3d debf 863d d4a1 903a
000000a0: 21ac a0be 56b3 0dbe d71f 5fbe 233a beba
000000b0: 9a4b 2a3d e0af d03d 04d0 8a3d a715 42be
000000c0: eeef 82be 3a5f 2cbd 37c7 0e3d b502 f13c
000000d0: 14b2 9f3d 0527 fb3d 2003 453d 2e15 5bbd
000000e0: e87f 03be 92be b5bc 4284 cc3d 8001 c13d
000000f0: 7552 783e 4354 523d 6c57 d5bd c2c6 983d
00000100: 01cc eb3c f454 9fbc 6b8c e5bd f29d 9bbd
00000110: 73fe 6bbd f024 073e f060 bf3d 66fc e03b
00000120: 536b b83c fd3f 043e b9eb bebb c367 16bd
00000130: 52e3 113d a8d6 5bbb 694c f2bc f563 1dbd
00000140: 23e4 d1bd ff28 c2bd a7d2 4b3c 6975 ad3c
00000150: f0a5 093d 52a2 ca3c d113 ff3c 0e87 7e3d
00000160: 543b f53c 2a00 223e e344 d63c 8d1d 16bc
00000170: 7025 e5bb 2934 113e b962 163d 2cf5 c2bd
00000180: ea43 073d 3ada 163e 2adb 233e 55c8 503e
00000190: bfb9 dd3c 3b56 233d 327b 85bd 6bd0 51bd
000001a0: c461 933d 1f49 353e f864 803e c25e a3bd
000001b0: 0144 4ebc 294f 22be a468 28be fa73 a1bd
000001c0: f722 f1bc beea f03d af7b 82bd d05c 16be
000001d0: 7536 b2bc 6110 fe3c b07f 9abd 5f17 a7bd
000001e0: 4c04 cc3d 757a 2f3e e342 4ebd d967 42be
000001f0: 6645 99bd e5cb 27bd e520 273c aeb5 86bb
00000200: 7672 0a3d c36b 843d ffd9 fdbd 7b56 03be
00000210: 7e87 d3bd 5a31 70bd 3aba c6bc be0e 093e
00000220: d549 a1bd adf7 64bc ea5e 563a d435 bd3c
00000230: bf59 64bd c88e 56bb afe0 a7bd 428b b4bd
00000240: b23f e23b ef26 0ebd dd98 b73c 00ca 99bd
00000250: 0f88 363e bf52 0ebd 7ea9 1bbe 4c10 47bd
00000260: 90f8 12bb 2949 9d3d 4abd 313c fba3 b8bb
00000270: cccb 573d b3cd a83c 5d7f 7cbc fab1 1bbd
00000280: ab3e f93c 2def 1dbd 21d2 18be aaa0 87bd
00000290: fb5c ed3c 553a d03d 7069 84bd be8b db3c
000002a0: 79c3 413d 3c23 c03d 187c cabd 9109 4cb9
000002b0: 7445 663d 51e7 e4bc 0d53 403d 898a ff3b
000002c0: 4cac 693e 704e 40be 149c 80be 7e64 86bd
000002d0: 6911 983d 869e d8bc 9237 ea3b 3ff2 b63d
000002e0: f891 97bd 9598 03be da0e dabd 312b 92bc
000002f0: a40f 6c3e 59b4 113e 3e51 293d 06b8 08bd
00000300: 6f8a 093e cec7 47be b6f1 96be 0312 983c
00000310: 9cc3 d13c b5a0 b03b 6310 ccbb 7591 563d
00000320: 8d2f 5bbc ca7f f33c 75ba 97bd 4f92 e2bc
00000330: 0b22 ddbc 1e1b 293e 1a6b 463d e304 473d
00000340: dc7d 793c affe 88bd f772 3ebc 73d2 06ba
00000350: a96a a6bd d1fa 66bd 6556 d13d 1ac6 e33c
00000360: 3452 bd3d 4c5c 0a3d f687 a5bc ac89 503c
00000370: a9b3 c3bc 437c f2bd 9d15 a0be 1235 a0bd
00000380: d5ca 083d 73aa 3bbe aefa 8bbe 8b10 3bbe
00000390: 8c4b 8e3a 3bf3 18be e05a 49bd 9129 97be
000003a0: 3c2a d6bd 0786 38be 215d 22be 7a38 2ebd
000003b0: d520 7ebc 3884 da3d d736 573c c054 a63b
000003c0: 9d0a 42bd 99a9 6abd e647 973d 7e2f 013e
000003d0: 011d 54bd b3da 153d 9cfd ad3c a525 24bd
000003e0: 9ad5 283e 951f cc3d 90b1 8b3c 3925 ff3c
000003f0: 7cac 583e 9e35 673e dbdd e63d d8df 85bd
-0.051956274 -0.114824235 -0.060377266 0.16642408 -0.049526062 -0.1709088 -0.098308824 -0.10081281
0.036783945 -0.11007026 -0.009529188 0.11393542 -0.067104496 -0.0021457586 -0.064509235 -0.071611695
0.029099803 -0.09331845 -0.04006739 -0.037590053 -0.1882089 -0.09816494 -0.14366122 -0.084105074
-0.04359476 0.07784554 0.09965549 -0.040204994 -0.03699208 0.047980353 -0.066804916 0.0664908
-0.15850633 -0.05883596 -0.20741864 -0.09768722 -0.06705531 0.061560195 0.065795645 0.0011034557
-0.31381324 -0.13837942 -0.2178949 -0.0014513176 0.041576006 0.101897955 0.06777957 -0.18953572
-0.25573677 -0.042083003 0.034857955 0.029420236 0.077976376 0.12263302 0.048098683 -0.053486995
-0.12841761 -0.022185598 0.09986164 0.09424114 0.24250205 0.05134989 -0.10417065 0.07459785
0.0287838 -0.019449688 -0.11208423 -0.07598485 -0.05761571 0.13197684 0.09344661 0.0068660257
0.022512114 0.12915035 -0.00582644 -0.03672005 0.03561718 -0.0033544693 -0.02957745 -0.038425405
-0.10248592 -0.09480476 0.01244036 0.02117415 0.033605516 0.024735603 0.031137379 0.062140517
0.029935516 0.15820375 0.026155895 -0.009162319 -0.0069929883 0.14180054 0.036715243 -0.09519419
0.033023752 0.14731684 0.16001573 0.2038892 0.02706611 0.039877158 -0.06517638 -0.051224153
0.07196382 0.17703675 0.25077033 -0.07977058 -0.012589456 -0.1585051 -0.16446167 -0.07883449
-0.029435618 0.117635235 -0.06371247 -0.14683843 -0.021754483 0.03101367 -0.07543886 -0.081587546
0.09961757 0.17136557 -0.050356757 -0.18984927 -0.0748394 -0.040965933 0.010200714 -0.0041110134
0.033800565 0.064658664 -0.12395095 -0.12825958 -0.103285775 -0.058640815 -0.024258722 0.1338453
-0.078754105 -0.013975066 0.00081775954 0.023096956 -0.05574965 -0.0032738913 -0.08197152 -0.08815624
0.0069045657 -0.0347051 0.022411758 -0.075092316 0.1782534 -0.03474688 -0.15201375 -0.048599526
-0.0022425987 0.0767997 0.010848353 -0.0056347824 0.05268459 0.020605898 -0.015411225 -0.03801153
0.03042539 -0.038558174 -0.14923908 -0.06622441 0.028975 0.10167376 -0.06465423 0.026800033
0.047305558 0.093817204 -0.0988695 -0.0001945852 0.05621858 -0.027942332 0.046954203 0.007798497
0.22819632 -0.18779922 -0.25119078 -0.06562136 0.07425196 -0.026442777 0.007147738 0.089329235
-0.07400888 -0.12851174 -0.10647364 -0.01784286 0.23052841 0.14228953 0.041337244 -0.033378623
0.13431714 -0.19509813 -0.29481286 0.018563276 0.02560597 0.0053902515 -0.0062275394 0.052384812
-0.013378036 0.02972402 -0.07408611 -0.027657656 -0.026993772 0.1651425 0.048441984 0.048588645
0.015227761 -0.06689202 -0.011624089 -0.0005143054 -0.081258126 -0.05639154 0.102215566 0.027804423
0.092441946 0.033779427 -0.020206433 0.012728136 -0.02388938 -0.11840107 -0.3126649 -0.07822622
0.03339656 -0.1832674 -0.2733969 -0.1826803 0.0010856255 -0.14936535 -0.04915893 -0.295239
-0.10457274 -0.18019877 -0.15855838 -0.04253433 -0.015510757 0.1066975 0.013135633 0.005076021
-0.047373403 -0.057290647 0.073867604 0.12615773 -0.051785473 0.03658552 0.021239094 -0.040074963
0.16487733 0.09966961 0.017052442 0.031145679 0.21159548 0.22579047 0.11272784 -0.065368354

fc1.bias f4 [64]
00000000: cf34 e6bd 58df 0d3e 6cc7 1a3e 7a75 653d
00000010: 2b67 063e 451e 5ebe 1e0b b03d c8c2 243e
00000020: d36c a73d d566 873e 2d8c 3f3d 1d1e f7bd
00000030: d9eb 1fbe 3d37 653d a542 2f3e ffce e23d
00000040: 88d4 5d3e 542c bc3d 386a e03b f780 87bc
00000050: 9bff 223e 5bd5 2abe 6d0e c6bd bc07 e5bc
00000060: e717 de3d 888c e23d 8811 d83d 4ad2 4d3d
00000070: e860 14be 303b 02be 0230 473e 1841 48be
00000080: 5d2a 9ebd 0d4c ae3d 95d6 edbd 1bfd 3f3d
00000090: 9add 29be ef85 2b3c f306 4cbe aba5 013e
000000a0: ee8c 12bd 6f50 fdbd bc9e 583d b479 b9bd
000000b0: 5125 5b3e 258a dabd d41c 13be 16cc a13d
000000c0: 4cd6 e1bd 2a7a f53d 7b3a 40be 7125 723d
000000d0: ca41 1fbe 3bb9 eebd 87c5 353e 4714 86be
000000e0: 48b7 373e 6955 fe3c c76b 8d3d e039 353e
000000f0: c5ee 78bd 0095 d7bc e1a7 73be 73f4 e2bd
-0.11240541 0.1385473 0.15115136 0.056020238 0.13125293 -0.21691234 0.085958704 0.16089928
0.081750534 0.26445642 0.04676454 -0.120662905 -0.15617312 0.055960882 0.17115267 0.110746376
0.21663105 0.091881424 0.0068485998 -0.016540987 0.15917818 -0.16682951 -0.0967072 -0.02795779
0.10844403 0.110619605 0.10550219 0.050249375 -0.14490092 -0.1271789 0.19451907 -0.19556081
-0.07722924 0.08510599 -0.11613194 0.04687224 -0.1658844 0.010468944 -0.19924526 0.12660854
-0.035778932 -0.12368857 0.052885756 -0.09056416 0.21400954 -0.1067088 -0.14366466 0.079002544
-0.11027202 0.119861916 -0.18772309 0.05911774 -0.1555244 -0.11656424 0.17751132 -0.26187345
0.1794101 0.031046586 0.069053225 0.17697859 -0.060774583 -0.026316166 -0.2379451 -0.11081781

fc2.weight f4 [10, 64]
00000000: 1dff d13d babe 123e b7ec 66be fa40 91bd
00000010: 3295 c7bd e7cf b0bc a577 493e 2854 20be
00000020: 4516 8cba 508d 9bbc 130b c83d b188 4a3d
00000030: 1250 55bd 6cfd 20be e12b c83d 6c41 043e
00000040: 5e58 12be aa1f 103e 538c 5d3e 9f42 b93d
00000050: 6307 2ebe fcb6 50bb 67d1 b83d ac6d 04be
00000060: d21c 64be 67a6 d43d fd0d 4e3d 85cc 1cbe
00000070: 0196 f3bd 7979 273e 4671 1b3d 5da3 3bbd
00000080: dd33 d9bc 9aab d23d 2a75 94bd 0a0f 12be
00000090: eea6 0a3c 12dd 22be 0d8a 63bd 9551 e3bd
000000a0: 57c9 bc3d eac3 ed3d 706d 27bd 87bc 0ebe
000000b0: b33a 8b3d 297e 11be 30a0 d9bd f6e0 613d
000000c0: 5eed acbd 6da9 89bd 1a32 36be faab 053c
000000d0: 57ab 83be bcf0 8fbd 977e 7dbe d7b7 dc3d
000000e0: bdf2 b5bb 80d5 64be 5179 1bbd 7956 973c
000000f0: 2e96 e23c a348 803d d63c a93d 71a8 393e
00000100: d621 033c 22dd 463d 91ac 713b d085 2c3d
00000110: 638a 53bd a95a 17bd 2b17 d43d c4d1 873d
00000120: 4cf1 db3d da95 c43d 1f8a 10bf 6fa1 76be
00000130: cdeb 813e b929 b0bd f77a fe3c 0691 86bd
00000140: c237 073e 3e2a 3abb 086b e53d 0353 133d
00000150: 7f56 cf3d efa7 b0be 40e7 8dbe 391a db3c
00000160: 8c3f 4bbd e58f 3bbe 1fa5 a63c ec86 bcbc
00000170: 24d9 51bd 1148 20be 4193 503d 773c 0fbd
00000180: f19a 383d 4435 353d e953 5b3e 79f3 223e
00000190: 2842 94bc 4cdb d4bd 22f7 bbba 1538 76be
000001a0: 7cbc 2abe c9b7 babe c50e 48be ec64 deba
000001b0: f9ca 5d3e 8b2a 633d 0e79 7f3d a4fb ebbd
000001c0: fda0 0c3e c639 60bd 450d 933d d2c7 2fbe
000001d0: 20bd b83d 8a37 bbb9 b9c3 0abe b687 293e
000001e0: 46ae 8dbe 11c1 95be 68a3 cb3d 7d1b 0e3e
000001f0: b719 98be d5ce c3bd 284f 41bd 9323 443e
00000200: 4219 193e 86c1 88bc 75b6 9fbd e046 b7bd
00000210: 2d17 4fbe 03cc 1cbe 332a 963d 3fee 293d
00000220: f582 6fbd 2309 e53c 2608 5cbd 1c19 8abe
00000230: 2659 003e 67bb 8e3c 04df 133d a943 0e3e
00000240: 481e 4ebe 0576 19be fddd 253e 7039 c63d
00000250: 171d 803d 3bae b6bd f3e7 e03d 61a6 b63c
00000260: acf2 d83c a4b5 0f3e ecec 32be b82b 803e
00000270: a8b7 653d 961c 25bb c051 56be ece3 fd3d
00000280: 7307 2a3e 666a 3abe 7227 edbd 7bb4 ce3d
00000290: eb64 2f3e e2a5 313c e5d0 1e3e 7f5b 03bc
000002a0: 7dc9 4ebe 93b9 223d 314b 93be 6da1 f63d
000002b0: 0a2e f93b c3f4 bb3d e3f7 943d 97c2 883d
000002c0: 45d7 693d 6aa9 baba 7c94 573e 39d2 3fbe
000002d0: bc1f a9bd 7953 51be 61e8 32be 5f32 4f3e
000002e0: 1dbf 923d 69ed dbbd df5a 6ebd e0d8 ea3c
000002f0: e86a c73d a73a c4bd 3489 6abe c963 a0bd
00000300: c250 bebd a647 a5bc 8f5f 81bd 5333 213e
00000310: f95a a93d 8473 d0bd e291 19bd a0c5 6e3d
00000320: 3d2e 543d d2ad d03d 5619 90bd 6da1 8d3c
00000330: d4e1 923d 6bad e2bd 7fe3 7abe 8c2b 0bbe
00000340: 9829 c6bd 5abb 193c d0cd 0bbc b4c6 db3d
00000350: 0fc9 f23d 7a18 bb3d 0ecb 083e a75f 88bd
00000360: 0996 343e 8bd1 4a3c 3f5d b03d e473 91bc
00000370: d58a 643e 9b22 16be 1a32 143c a184 453b
00000380: e6cf d13d 51be 30be 9130 01be 7cfe 373e
00000390: 3f9e 813d 0302 09be cbd9 023e c3f7 3e3e
000003a0: 6b7f f7bd 2259 d53d 1359 5cbe 1702 f43d
000003b0: 6e22 51be ea0f 3bbe e0a0 adbd 6d0f ccbd
000003c0: 46ec 493e bf3c b3bd 2dac b5bc 4265 f33d
000003d0: b166 5cbc 4cb7 433d 26cc 1d3e 70d0 6cbe
000003e0: 9015 47be de5a d23d 225d 39be 9f99 0ebe
000003f0: eff8 7dbc cf52 5a3e c32d a4bd bdae 1a3d
0.10253737 0.14330569 -0.22551237 -0.070924714 -0.097452536 -0.02158351 0.19674547 -0.15657103
-0.0010687789 -0.018988281 0.09767737 0.049446765 -0.052078314 -0.15721673 0.09773994 0.12915581
-0.14291522 0.14074579 0.2163556 0.0904591 -0.16995005 -0.0031847348 0.09024315 -0.12932462
-0.22276619 0.10383301 0.05030631 -0.15312393 -0.11893845 0.16354932 0.037949823 -0.045810092
-0.026513988 0.10286637 -0.0724891 -0.1426355 0.008462651 -0.15904644 -0.055551577 -0.11099545
0.0921809 0.11609633 -0.040875852 -0.13939105 0.06798305 -0.14208283 -0.106262565 0.05514618
-0.08443712 -0.067217685 -0.1779255 0.008158678 -0.2571666 -0.07028338 -0.24755321 0.10777252
-0.0055526183 -0.22347069 -0.037957493 0.01847385 0.027659502 0.06263854 0.08263557 0.18130662
0.008003673 0.048550732 0.003687654 0.0421198 -0.051645648 -0.036951695 0.103559814 0.066318065
0.10739383 0.095988944 -0.56460756 -0.2408502 0.25375214 -0.08601708 0.031064494 -0.0657063
0.13204864 -0.0028406526 0.11202055 0.035967838 0.1012392 -0.34503123 -0.27715492 0.026745902
-0.04962115 -0.1831661 0.020342408 -0.023013555 -0.051232472 -0.15652491 0.050921682 -0.034969773
0.04506964 0.04424025 0.21418728 0.1591319 -0.018097952 -0.1039339 -0.0014340619 -0.24044831
-0.16673464 -0.36468342 -0.19536884 -0.0016967333 0.21659459 0.055460494 0.062371306 -0.11522606
0.13733287 -0.054742597 0.07180265 -0.17166069 0.09020448 -0.000357088 -0.13551225 0.16555676
-0.27672023 -0.2924886 0.09943277 0.13877673 -0.2970712 -0.095609345 -0.04719463 0.19154195
0.14951041 -0.016693842 -0.07798473 -0.08949065 -0.20223685 -0.153122 0.073322676 0.041486975
-0.0584745 0.027958458 -0.05371871 -0.26972282 0.12534007 0.017423345 0.036101356 0.13892998
-0.20128739 -0.14986427 0.16197963 0.09678924 0.062555484 -0.089199506 0.10981741 0.022296133
0.026482902 0.14034134 -0.17473191 0.25033355 0.05608335 -0.002519404 -0.20929623 0.12396988
0.16604404 -0.1820465 -0.11579789 0.10093018 0.17128341 0.010842772 0.15509374 -0.00801742
-0.20194049 0.03972776 -0.28768304 0.12042508 0.0076043652 0.09177544 0.07273843 0.0667774
0.057090063 -0.0014241163 0.21052736 -0.18732537 -0.08258006 -0.20441999 -0.17471458 0.20234059
0.07165358 -0.10738642 -0.05819213 0.028667867 0.097371876 -0.095814995 -0.22903901 -0.078315325
-0.09292747 -0.020175766 -0.063170545 0.15742235 0.08269305 -0.10178283 -0.03749264 0.05829394
0.05180191 0.101894036 -0.070360824 0.017288888 0.071719795 -0.11068233 -0.24500845 -0.1359083
-0.09675902 0.009383047 -0.008532956 0.10731259 0.11854755 0.09135528 0.13358709 -0.06658869
0.17635359 0.0123790605 0.08611535 -0.017755456 0.22318585 -0.14661638 0.009045148 0.0030138867
0.102447316 -0.172601 -0.12616183 0.17968172 0.06329011 -0.13379674 0.12778394 0.18649201
-0.1208485 0.10417391 -0.21518354 0.11914461 -0.2042329 -0.1826779 -0.0847795 -0.0996388
0.19719037 -0.08751821 -0.022176826 0.11884548 -0.013452218 0.047782227 0.15409908 -0.23126388
-0.19441819 0.10271238 -0.18101934 -0.1392579 -0.015501245 0.21320651 -0.08016541 0.0377643

fc2.bias f4 [10]
00000000: 387d 68bd 2bf6 4c3e 5773 e43d e795 ae3d
00000010: 9a49 31be 37e9 8e3e 3495 87bd d3d5 07bb
00000020: 41df 84bd 10f1 a63c
-0.056760043 0.2001578 0.11154812 0.08524685 -0.17313233 0.27912304 -0.06620255 -0.0020726814
-0.06487895 0.02037862
